…
46 - mean_squared_error: 97.8762\n2022-03-20 11:08:13.576085: W tensorflow/python/util/util.cc:368] Sets are not currently considered sequences, but this may change in the future, so consider avoiding using them.\nModel: \"model_16\"\n_________________________________________________________________\n Layer (type)                Output Shape              Param #   \n=================================================================\n input_17 (InputLayer)       [(None, 25)]              0         \n                                                                 \n multi_category_encoding_16   (None, 25)               0         \n (MultiCategoryEncoding)                                         \n                                                                 \n normalization_15 (Normaliza  (None, 25)               51        \n tion)                                                           \n                                                                 \n dense_32 (Dense)            (None, 32)                832       \n                                                                 \n re_lu_32 (ReLU)             (None, 32)                0         \n                                                                 \n dense_33 (Dense)            (None, 32)                1056      \n                                                                 \n re_lu_33 (ReLU)             (None, 32)                0         \n                                                                 \n regression_head_1 (Dense)   (None, 1)                 33        \n                                                                 \n=================================================================\nTotal params: 1,972\nTrainable params: 1,921\nNon-trainable params: 51\n_________________________________________________________________\n<autokeras.tasks.structured_data.StructuredDataRegressor object at 0x7f86bdd06dc0>\n",
  "history_begin_time" : 1647786973995,
…
